…
"execution_count":31,"metadata":{"colab":{"base_uri":"https://localhost:8080/"},"executionInfo":{"elapsed":354,"status":"ok","timestamp":1743797383076,"user":{"displayName":"ABDUL RAUF","userId":"06109492208779959459"},"user_tz":420},"id":"XjLqi0IuqTvk","outputId":"5918ba75-2ad0-4b86-ec0c-421160748218"},"outputs":[{"output_type":"stream","name":"stdout","text":["----------------------------------------------------------------\n","        Layer (type)               Output Shape         Param #\n","================================================================\n","            Conv2d-1         [-1, 50, 222, 222]           1,400\n","              Tanh-2         [-1, 50, 222, 222]               0\n","            Conv2d-3         [-1, 50, 220, 220]          22,550\n","              Tanh-4         [-1, 50, 220, 220]               0\n","         MaxPool2d-5         [-1, 50, 110, 110]               0\n","            Conv2d-6         [-1, 50, 108, 108]          22,550\n","              Tanh-7         [-1, 50, 108, 108]               0\n","            Conv2d-8         [-1, 50, 106, 106]          22,550\n","              Tanh-9         [-1, 50, 106, 106]               0\n","        MaxPool2d-10           [-1, 50, 53, 53]               0\n","           Conv2d-11           [-1, 50, 51, 51]          22,550\n","             Tanh-12           [-1, 50, 51, 51]               0\n","           Conv2d-13           [-1, 50, 49, 49]          22,550\n","             Tanh-14           [-1, 50, 49, 49]               0\n","        MaxPool2d-15           [-1, 50, 24, 24]               0\n","           Conv2d-16           [-1, 50, 22, 22]          22,550\n","             Tanh-17           [-1, 50, 22, 22]               0\n","           Conv2d-18           [-1, 50, 20, 20]          22,550\n","             Tanh-19           [-1, 50, 20, 20]               0\n","        MaxPool2d-20           [-1, 50, 10, 10]               0\n","          Flatten-21                 [-1, 5000]               0\n","           Linear-22                    [-1, 1]           5,001\n","================================================================\n","Total params: 164,251\n","Trainable params: 164,251\n","Non-trainable params: 0\n","----------------------------------------------------------------\n","Input size (MB): 0.57\n","Forward/backward pass size (MB): 102.47\n","Params size (MB): 0.63\n","Estimated Total Size (MB): 103.67\n","--------------------------------------
…
